…
      Probe Attack       0.99      0.99      0.99       724

          accuracy                           1.00      3240
         macro avg       1.00      0.99      1.00      3240
      weighted avg       1.00      1.00      1.00      3240

Confusion Matrix:
[[958   0   0   1]
 [  0 958   0   0]
 [  0   0 595   4]
 [  5   0   4 715]]

--- Transformer ---
Model: "functional_1"
+--------------------------------------------------------------------------+
| Layer (type)        | Output Shape      |    Param # | Connected to      |
|---------------------+-------------------+------------+-------------------|
| input_layer_1       | (None, 1, 79)     |          0 | -                 |
| (InputLayer)        |                   |            |                   |
|---------------------+-------------------+------------+-------------------|
| multi_head_attenti… | (None, 1, 79)     |     81,743 | input_layer_1[0]… |
| (MultiHeadAttentio… |                   |            | input_layer_1[0]… |
|---------------------+-------------------+------------+-------------------|
| dropout_1 (Dropout) | (None, 1, 79)     |          0 | multi_head_atten… |
|---------------------+-------------------+------------+-------------------|
| layer_normalization | (None, 1, 79)     |        158 | dropout_1[0][0]   |
| (LayerNormalizatio… |                   |            |                   |
|---------------------+-------------------+------------+-------------------|
| add (Add)           | (None, 1, 79)     |          0 | layer_normalizat… |
|                     |                   |            | input_layer_1[0]… |
|---------------------+-------------------+------------+-------------------|
| conv1d (Conv1D)     | (None, 1, 64)     |      5,120 | add[0][0]         |
|---------------------+-------------------+------------+-------------------|
| dropout_2 (Dropout) | (None, 1, 64)     |          0 | conv1d[0][0]      |
|---------------------+-------------------+------------+-------------------|
| conv1d_1 (Conv1D)   | (None, 1, 79)     |      5,135 | dropout_2[0][0]   |
|---------------------+-------------------+------------+-------------------|
| layer_normalizatio… | (None, 1, 79)     |        158 | conv1d_1[0][0]    |
| (LayerNormalizatio… |                   |            |                   |
|---------------------+-------------------+------------+-------------------|
| add_1 (Add)         | (None, 1, 79)     |          0 | layer_normalizat… |
|                     |                   |            | add[0][0]         |
|---------------------+-------------------+------------+-------------------|
| global_average_poo… | (None, 79)        |          0 | add_1[0][0]       |
| (GlobalAveragePool… |                   |            |                   |
|---------------------+-------------------+------------+-------------------|
| dropout_3 (Dropout) | (None, 79)        |          0 | global_average_p… |
|---------------------+-------------------+------------+-------------------|
| dense_2 (Dense)     | (None, 32)        |      2,560 | dropout_3[0][0]   |
|---------------------+-------------------+------------+-------------------|
| dense_3 (Dense)     | (None, 4)         |        132 | dense_2[0][0]     |
+--------------------------------------------------------------------------+
 Total params: 95,006 (371.12 KB)
 Trainable params: 95,006 (371.12 KB)
 Non-trainable params: 0 (0.00 B)
Epoch 1/15

[1m  1/365[0m [37m====================[0m [1m10:24[0m 2s/step - accuracy: 0.2188 - loss: 2.0139
[1m 21/365[0m [32m=[0m[37m===================[0m [1m1s[0m 3ms/step - accuracy: 0.6654 - loss: 0.8854  
…
